convnet_from_scratch_with_a_dropout_layer.keras.tflite (tflite, 728744 bytes, 8 tensors)

model/conv2d/BiasAdd/ReadVariableOp f4 [32]
00000000: 9d00 d23d 1378 94be 08d3 0fbe 7662 37be
00000010: 5b26 a63d f244 e33d ba31 8fbe be86 42be
00000020: e596 6d3e da65 ad3e 6745 c63e 19d2 843d
00000030: 0bfc 90bb 564c 77b9 38a5 273d 3258 28bd
00000040: ee59 86be 6639 753d 82c5 4a3e 852a c6be
00000050: d989 863c 224c 09bd e8dc d13d 836e cdbd
00000060: 1f79 063e 7e36 9a3c b434 c2bc ff01 503c
00000070: d86f 963e f5f7 613e 50a6 a6ba e1dc 1b3e
0.10254023 -0.2899786 -0.14045346 -0.17908654 0.081127845 0.11097135 -0.27967626 -0.18996713
0.23202093 0.3386677 0.38724825 0.064853854 -0.004424577 -0.00023584193 0.04092905 -0.041099735
-0.26240486 0.059869193 0.19801906 -0.38704315 0.016423153 -0.03351987 0.10247213 -0.10030844
0.13132142 0.018824812 -0.023706771 0.012695788 0.29382205 0.22067244 -0.001271436 0.15220977

model/conv2d_1/BiasAdd/ReadVariableOp f4 [64]
00000000: 25f4 1b3f fde8 b73d d653 f3bc 4120 20be
00000010: 307b e4bc 17d1 183e 4ac2 003e 7361 c2bc
00000020: ad17 69bc 3669 9ebd 285d 00bd 237b 1a3c
00000030: 0b5d 91bc cd5f 223f 54e1 b4bc 7138 11bd
00000040: 49f5 3c3e f7aa 03bd 9464 e03c 16f9 ee3c
00000050: 37b8 d83b 03d1 ddbc ec19 873e 5a0f 99bc
00000060: f9f5 bbbc d01e fb3b 9451 6cbd 3130 ddbc
00000070: 5f07 1fbd 6b30 1a3c 0628 89bd d721 c3bd
00000080: 1396 86bd 3c9e fcbc 1323 f0bc 1fee c5be
00000090: 8209 1d3b 76ec 203f fde7 273d 02ad 893d
000000a0: 7af4 1ebd 7c74 22bd e1cd 25bc ee2d 64bc
000000b0: 20b0 ad3e 346e cbbc 02ab 2fbd 1959 26bd
000000c0: 2afc 94bc de27 c5bd e3e1 81bd ec44 53bd
000000d0: 2894 d9bc 7366 01be 9548 e8bc 340e a63e
000000e0: 3ed9 663e ddc8 0cbd 741b 94bd 9ba7 9e3e
000000f0: acab 86bd f42b 3bba 4a4f f2bc 8290 06bd
0.6091941 0.08979986 -0.029703062 -0.15637304 -0.027890772 0.14923511 0.12574115 -0.023728108
-0.014226836 -0.07734911 -0.03133884 0.009428772 -0.017744562 0.6342743 -0.022080101 -0.035454217
0.18452944 -0.032145467 0.02739171 0.029171508 0.006613757 -0.027077204 0.26386964 -0.018684078
-0.022944437 0.0076635852 -0.057694986 -0.027000519 -0.03882539 0.009410958 -0.06697087 -0.09527939
-0.06571593 -0.03083717 -0.0293136 -0.38658234 0.0023961966 0.6286081 0.040992726 0.06722452
-0.03880737 -0.03966187 -0.010119886 -0.013926966 0.33923435 -0.024832822 -0.042887695 -0.040612314
-0.018186647 -0.09626745 -0.063419126 -0.0515794 -0.026559904 -0.12636738 -0.028354922 0.3243271
0.22543809 -0.034371246 -0.07231799 0.30987248 -0.065757126 -0.00071400334 -0.029578824 -0.032852657

model/conv2d_2/BiasAdd/ReadVariableOp f4 [128]
00000000: 678e 4ebb e584 f33c cbf1 903e b8e3 d4bc
00000010: 6d91 c73e 96c5 803d 38a7 3c3e 7fdd a33e
00000020: 4255 493e ebeb 8a3d 46a2 4e3e fff5 1d3e
00000030: 3305 1a3e 0f67 733e d3ef f33d 0be8 933e
00000040: 0204 183e 3204 383e fb94 1b3e 8416 4cbd
00000050: 653c 383e 35fa de3c 9156 b13e 302a 193e
00000060: 4361 0b3e 788d ba3e 4ffb 253e 9b7b 6c3e
00000070: 6bc9 643e a23d a63e e03b 98bc d177 ee3d
00000080: cfe9 4b3e 026b 333e bd7a f13d 3ce9 3d3e
00000090: 0002 413e 57d0 023d 7d2f a33e ac80 b13d
000000a0: 3962 023e dbdb 673e de97 683d aaa9 3ebd
000000b0: 146c 373e 3894 583e 365c 093e 311a e53d
000000c0: aab1 863e 83fa a53e ff5d 823d 4a0e 3d3d
000000d0: 1d21 2d3e 8eeb 393e 1ca6 d43d a6fd 8d3e
000000e0: b9e7 263e e636 063b 5859 343d dcbf d13d
000000f0: 8c56 793e 9c94 3ebd 74c4 a23e dc81 d73d
00000100: 3841 093e dbb6 833e 1356 453e 318c 423c
00000110: 8714 503e 2c80 1a3e e5b2 293d ce76 863e
00000120: 4268 883d fe05 8c3e 4e55 423e 9f98 443e
00000130: 1ed2 ef3d c30f 863e 79f1 383d 446c 1f3e
00000140: 0403 813e fc3b 5e3e a4d3 b73d 74c9 0b3e
00000150: 5e0d 3e3e e959 773e 99b2 8d3e 35a4 7b3e
00000160: 4e02 1e3d 098d 993e ec96 e83d 3380 933d
00000170: 7513 963e 4675 9b3a c309 883e 776c b73d
00000180: b97f 1bbc 0ca1 ce3c 5900 8d3e 0749 883e
00000190: 4200 2b3d c0cc 063e 8a59 a2bc d89d 8c3e
000001a0: c687 c93d 70b0 5c3e 3f9f 903d 47a2 773e
000001b0: 4a9a 0f3d 3904 7b3e e65e 033e 2b9d c23d
000001c0: 7b09 5cbd 29fa 753e d787 713e db43 eb3d
000001d0: 286c 173e 5f7e 213e 5116 813e 8168 723e
000001e0: 4c1a 5b3d 8826 86bc ac09 3e3e 3216 9a3e
000001f0: 28e2 b63e 5868 9b3e 103b ea3d 662e a43d
-0.0031517984 0.029726455 0.28309473 -0.025987491 0.3897814 0.062876865 0.18423164 0.32004926
0.1966143 0.06783279 0.2017909 0.15425871 0.15041046 0.23769782 0.11910977 0.28887972
0.14845279 0.1797035 0.1519355 -0.04982616 0.17991789 0.027218917 0.34636357 0.149575
0.13611321 0.36436057 0.16209148 0.23094027 0.2234246 0.32468897 -0.018583238 0.11643947
0.1991341 0.17521289 0.117909886 0.18546003 0.18848419 0.03193697 0.31872168 0.0866712
0.12732781 0.22642462 0.056785457 -0.046548523 0.17912322 0.21150291 0.13414082 0.11186636
0.26307422 0.32417688 0.063655846 0.046156205 0.16907163 0.18156263 0.10383245 0.2773258
0.16299333 0.00204795 0.044030517 0.102416724 0.24349421 -0.046528444 0.31790507 0.105228156
0.13403785 0.25725445 0.19271116 0.011874245 0.2032033 0.15087956 0.041430373 0.26262516
0.066605106 0.27348322 0.18977854 0.19198845 0.117099985 0.261839 0.04515216 0.15568644
0.25197613 0.2170257 0.08975914 0.13651067 0.18559787 0.24155392 0.27675322 0.24574359
0.038576417 0.29990414 0.11356911 0.072021864 0.2931172 0.0011860512 0.26569948 0.08956235
-0.009490901 0.025223278 0.27539328 0.26618215 0.041748293 0.13164043 -0.019818086 0.27464175
0.0984035 0.2155168 0.07061624 0.24182998 0.03505925 0.2451333 0.1282917 0.09502634
-0.05371998 0.2402121 0.23586975 0.11487552 0.14787352 0.15770863 0.2521234 0.23672678
0.053491876 -0.016375795 0.18558377 0.3009506 0.3571942 0.30353045 0.114370465 0.08016662

model/conv2d/Conv2D f4 [32, 3, 3, 3]
00000000: 1a2f 17bd 52ba b7bd c726 bbbb 1943 61be
00000010: 37ed ecbd 190d 0bbe 16de 053d 574b 94bc
00000020: 28af 263d 3458 91bd 189f a3bb b71c 243d
00000030: 84b3 3ebc 031a eb3c 762c c6bd af3f 743d
00000040: 584f d93c ed3c a9bc 422c 1abe 3fb8 133d
00000050: 344a a03c 9aaa 853d 7d4b 0fbe a557 473b
00000060: 4610 dbbd b90e b13d 16c4 98ba 5e45 533d
00000070: 3db8 f53c 4aca 67bd b599 103e 0b7b 0f3e
00000080: 1853 593d 8882 ec3d ab6e e33b 2a8c a2bd
00000090: 5fe0 cd3d d2bb 983d 8682 593d ea3c babd
000000a0: 2d91 90bd b893 7f3d 9101 aabd 26fa ec3d
000000b0: a993 e53d cc57 13be 8309 01be 9e33 07bd
000000c0: cad8 11be b4a8 963d 074f 0cbe 72ef 82bd
000000d0: b0de 02be fc1d a13d 52cb 9fbc 55d1 f83b
000000e0: d6f5 b2bc 2c3c bdbd 6049 c5bd 9826 0fbd
000000f0: b76b a2bb d321 223e 195d 3d3c 1e49 15be
00000100: ea6d abbd 7dea d53c ff12 fabd 03d4 04bd
00000110: 4aee d3bd 994f b7bc 7113 083e cabd da3d
00000120: 5582 7e3c 31d5 78bd dca8 acbc 9b81 823d
00000130: 0f4a a9bd 8abe 2ebd ca6c df3d 592b 043e
00000140: c361 1fbe cc5a 7dbd 5fbd 3a3d 4644 153d
00000150: b200 213e fb6b d73d 63a2 9f3d ea43 ba3c
00000160: c626 fabb 3feb 0dbe 80e2 acbc 2a2b 153e
00000170: a302 d73d 91c4 20bd baad a3bd a517 febc
00000180: b031 bd3c 6d52 f13c 7d66 16be 38a4 c73b
00000190: ec08 053e f3e9 b83d 2a8e 00be 68d0 c2bd
000001a0: 2c79 edbd 88d0 13be 7ce3 12be 7a8d 2ebd
000001b0: 0b2e a4bd b793 0c3e edd0 7bbd 3dcd 76bd
000001c0: 5c9f 2c3d 07b3 b0bd 55cc 423d b4e3 71bd
000001d0: f5f5 5d3d b98e c0bd 2c03 043e 997b d53d
000001e0: 9a47 77bd ef02 11be e599 a8bc 0b06 25bd
000001f0: 5327 7f3d f471 a7bd 7cf6 d0bd 342f 013d
00000200: e603 dbbd cb5d bcbd dae9 4ebc 8ce7 e03b
00000210: ad72 1fbd 8473 073e feb0 763d 72be f3bd
00000220: 0790 12bd 8410 9cbd a467 963d a6be 14bc
00000230: ce6d aebc 4dd6 b43c 70b8 ccbc 6f80 263d
00000240: d796 b6bd 255d 503d 77a9 3dbd 3b1c b0bd
00000250: 0907 f4bd 0f76 8b3d b1b3 d0bd 4db5 543d
00000260: 174e 2fbc 66c1 46be 7799 0bbe b044 e23d
00000270: d946 433d 1ecc 3c3d 44c1 6cbc 7b54 5abd
00000280: f672 453c 5db8 1bbc 9c1b 60bd ff31 a8bd
00000290: 9e28 d3bd 733b d73d 208b 8fbd 0254 a23d
000002a0: 1ba0 ea3d fb74 0c3e dcfa 893b 4f33 5b3c
000002b0: 1015 cd3d 1ea4 fdbb 5d9b 743d 9773 55bd
000002c0: 9e8b 663d db7c 053e 43d3 0cbd 9bd6 62bd
000002d0: ac61 ddbd d570 273d 64b9 b4bd 3797 e5bd
000002e0: 084c 34bd 533c 6f3d c484 f3bd 038f 60bd
000002f0: dc22 b9bd 68c5 ecbc 4da2 cf3d 5630 9f3d
00000300: fc29 80bb 1b5f 033e 9fcf 8abd 8aa6 d9bc
00000310: 3365 1e38 da12 a63d 4ded d53c a503 be3c
00000320: 7f47 d6bd 6a63 1a3e abfc 29bd 0078 acbc
00000330: e87f 52bd 7865 d23c 2376 62bd acb1 05bc
00000340: 7b54 02bd 5345 76bd 1ecd 903d f4aa 6ebd
00000350: 02b8 423c 77a8 9a3d c2b8 60bd a958 00be
00000360: 7a40 533d ef65 643d 04f1 fc3b 1201 b9bd
00000370: b788 e2bd c023 2dba 442e 9c3d c68b 4dbb
00000380: 71ed e43d daaf dfbd 5698 2f3d 2112 e43d
00000390: 0f71 64bd 00e3 32be dcb1 c63c 4c11 023e
000003a0: a1bf 813d 132e 343d ef49 e33d b7fd 1bbc
000003b0: 229a 5c3c 4995 ffbd 0a87 b6bd af7c eabd
000003c0: 3005 843d 20a8 b73c 1260 15bd 0a6f d63c
000003d0: d96e 4abd f393 a53d e282 933d b986 25be
000003e0: efad d63d 6619 09be 507d 51bd 76da c73d
000003f0: 2baf 1e3d edf2 c1bc a552 1dbd 32f0 9abd
-0.036910154 -0.08971085 -0.0057114097 -0.21998252 -0.11568683 -0.13579215 0.0326825 -0.018102331
0.040694386 -0.070969015 -0.0049933307 0.040066447 -0.01163948 0.028698927 -0.09676449 0.059631046
0.026527092 -0.020658934 -0.15055946 0.036064383 0.019566633 0.0652668 -0.1399364 0.003041723
-0.10696463 0.08645386 -0.0011655118 0.051579826 0.029995078 -0.056589402 0.14121135 0.14011781
0.05305776 0.11548334 0.006940683 -0.079368904 0.10052561 0.07457699 0.053102992 -0.0909365
-0.0705894 0.062396735 -0.0830108 0.115711495 0.112098046 -0.1438896 -0.12601285 -0.03300821
-0.14242855 0.07356396 -0.13702022 -0.06393327 -0.12780261 0.07867047 -0.01950613 0.0075933137
-0.02184574 -0.092399925 -0.09633136 -0.034948915 -0.0049566883 0.15833215 0.011557841 -0.14578673
-0.08370574 0.02611279 -0.122106545 -0.032428753 -0.103481844 -0.022376822 0.13288666 0.10680731
0.015534003 -0.06075019 -0.021076612 0.063723765 -0.08266079 -0.04266218 0.10909422 0.12907161
-0.15564637 -0.06185417 0.045590755 0.036442064 0.15722921 0.105186425 0.07794645 0.022737462
-0.0076340167 -0.1385927 -0.021104097 0.14567247 0.1049855 -0.03924996 -0.0799212 -0.031017134
0.023094982 0.029458249 -0.14687534 0.0060925744 0.12991685 0.09028997 -0.12554231 -0.095124066
-0.11595377 -0.14435017 -0.14344591 -0.04261539 -0.080165945 0.13728224 -0.061478544 -0.060254324
0.042144164 -0.08627897 0.047558147 -0.059055045 0.05418964 -0.09402222 0.12891835 0.10423965
-0.06037102 -0.14161275 -0.020581195 -0.040288966 0.062293362 -0.08176032 -0.10203263 0.031539157
-0.10694103 -0.09197577 -0.012628997 0.00686354 -0.038927723 0.1322766 0.060227387 -0.11901559
-0.035781886 -0.076203376 0.07343987 -0.009078657 -0.021292593 0.022074843 -0.02499029 0.040649828
-0.08915489 0.05087008 -0.046304192 -0.085991345 -0.11915404 0.06809627 -0.101905234 0.051930714
-0.01069977 -0.19409713 -0.13632761 0.11048257 0.047674987 0.0460931 -0.014450375 -0.053303223
0.012051335 -0.009504405 -0.05471383 -0.08212661 -0.103104815 0.10509386 -0.07008958 0.079261795
0.11456319 0.137165 0.004210813 0.013378932 0.10013783 -0.0077405116 0.05971848 -0.05211219
0.056285493 0.1303591 -0.034381162 -0.055380445 -0.10809645 0.04087909 -0.08824423 -0.112104826
-0.04401782 0.05840714 -0.118905574 -0.054823887 -0.09039852 -0.028902724 0.10138378 0.07772891
-0.003911255 0.12829249 -0.06777882 -0.02656867 3.7764385e-05 0.081090644 0.02611413 0.023195097
-0.104628555 0.15076986 -0.04150073 -0.021053314 -0.051391512 0.02568315 -0.055288445 -0.008160036
-0.031818848 -0.060124706 0.07070373 -0.058268502 0.011884691 0.07551663 -0.0548637 -0.12533821
0.05157516 0.055761274 0.007719161 -0.09033407 -0.110612325 -0.00066047534 0.07626012 -0.003136383
0.11178101 -0.10922213 0.04286989 0.1113627 -0.055771884 -0.17469406 0.024254732 0.1270191
0.063353784 0.043989252 0.11098086 -0.00952094 0.0134644825 -0.12479646 -0.089124754 -0.11449563
0.06446302 0.022419035 -0.036468573 0.026175994 -0.04942212 0.0808486 0.07202698 -0.16164674
0.10482394 -0.13388595 -0.051144898 0.09758465 0.038741272 -0.023675406 -0.038408894 -0.07565345

model/conv2d_1/Conv2D f4 [64, 3, 3, 32]
00000000: dd79 ee3b 5448 70bd 3e3e 5ebd 72e7 aebd
00000010: 047b a63d 8213 5a3c ee9a e23c f1be 9c3d
00000020: 4c8a 263c c854 303c 3486 5f3d d76f c63c
00000030: 53b4 50bd 9457 c43c f74c 993c 4bfb 813d
00000040: b49e b4bc 1469 c93d d4a1 2c3d 225e 28bc
00000050: f03f 853d 1840 43bd 132b f5bc 3d5b 04be
00000060: 313c ffba 58ae a83d cad5 583d c6d6 ef3d
00000070: 8ebb d23c 199f 033d 5db6 26bc 1dc5 c43a
00000080: 1eed f83c 369b 37be 178e 82bd 38d1 e9bd
00000090: 9884 153e 8c6a 933d 6258 0abe bbfa d4bd
000000a0: 647d 813d 5b7f a5bc cbbf a13c 5452 d6bc
000000b0: d0c9 113d c191 8a3d a113 19bd 68bb 64bd
000000c0: fbf6 c0bd 255c b53c 4b52 163e 63eb abba
000000d0: c6a2 5cbb c128 d4bd f154 bd3c 8468 fdbd
000000e0: 404a a33c cad5 35bd 8b64 a1bd 4ffd e43d
000000f0: af37 97bd c189 fdbb b9b1 b2bb 7f27 3cbd
00000100: 501c a6bc 543d febd 9080 76bc 16fd 12be
00000110: f651 6e3d e6ce 193d 9dc7 d4ba d9a8 a3bd
00000120: 9ff9 673e 0a37 543d d6a2 ccbb a586 5abd
00000130: 6e3e 83bd 60ab 7dbb 9781 433d 8144 acbd
00000140: dc16 47bd 009f 213e a010 a3bc 32f3 693d
00000150: 4bf2 cd3d 018b 32bd ff13 4c3c b0d5 04bc
00000160: fc93 6fbd e095 df3c 4b04 c4bd 93dc d23d
00000170: 2c8d 21bd 0eb0 9bbc 1562 663d 00f8 ccbd
00000180: 6763 173d dbb8 553c de90 64bd b9f8 4abd
00000190: fcbf 1b3d c01f f83c 42c2 533c 1f1b 403d
000001a0: e911 d738 eccd 763d 9b68 09be b0c5 4dbd
000001b0: 95af 453c 06de 2a3d b99d 833d db06 923c
000001c0: e8ff 86bc e58c b73c a1f6 bdbc 87e7 0abd
000001d0: ade9 c4bd 723f e2bb fa26 c63d 7cfa d2bd
000001e0: d04a d73c 7fe5 99bd fadf 753b 4aca 07bd
000001f0: d388 9b3d 28dc 94bd d7cf 10bd 1da2 063d
00000200: c582 d0bc 2771 ffbd d3b1 b63d fd70 f33d
00000210: fd75 06bd a67f e83c 968a 08bd 933c 04be
00000220: e8f0 93bd c466 b9bd 2503 a8bc e2a5 b2bc
00000230: 340e 55bc ba2c 033d 8c83 f7bb ee4c 02be
00000240: bb2d b5bd e677 e63c d141 293d 985b e63c
00000250: 9dc0 7e3b a455 b9bc 8f62 643d 7f55 17be
00000260: 59b5 8e3d 441c a2bd cd99 a93d ebfc 14bd
00000270: 2663 e5bc fe7f a13c 3419 103d 339b d43b
00000280: 766b b9bc 4182 19be 4240 a23d bdbd 48bc
00000290: 33c0 4d3d e920 d6bc 6ba1 ffbc 33c3 b7bd
000002a0: 0c4c 3b3a aac6 a03d 286c b93c 9e3d b63d
000002b0: 6b33 4f3d f62e dfbc ab82 253d f19d 063c
000002c0: 8940 dcbc 0dd7 653e b7ca b4bc 94a0 87bc
000002d0: 8b8c 2f3d 5006 ecbb 381f 31bd d719 b9bd
000002e0: 1ed6 183e c0fc e9bc dd43 8a3c 2971 7c3d
000002f0: fdaf 69bc f7f6 913d 4b0e 953d 1c90 50bc
00000300: 1923 143d efe8 463d a58c 173c 22c2 b5bc
00000310: 94ef cbbd 97a8 4f3c d330 463d 86a6 97bc
00000320: 76af b53d fbdc b7bc 40e4 64bd d559 aabc
00000330: e16f 583b c841 93bd 0d4b 363b 1648 a5bd
00000340: a47e e0bc 0fe6 bdbd 7514 9dbd 78fc 01bd
00000350: 11ea 76bd a3ee 8abc e1df 8d3d 9ee7 c3bc
00000360: b6d5 ad3d dec1 453d 538c 4fbd 8f63 163c
00000370: 44dd 613d 25a9 23be 90e9 113d b566 333d
00000380: 205e ecbd 3fcb 123d 68c0 82bc c139 29bd
00000390: 55d3 9ebd 0fa0 a3bd 8579 24be ffde 043c
000003a0: 2452 9cbd 54b6 33be 676b d4bc 1cba 1839
000003b0: d8b5 38bd 06b2 203d cf57 85bd ec64 3b3d
000003c0: e13e a1bd 2103 50be ae59 e8bc 97fb bb3d
000003d0: f098 dcbd fecd d83c ab35 d6bd 7b93 45bd
000003e0: 7999 19be e7e5 1a3d d365 4fbd 2ac1 c8bd
000003f0: ae89 013d ffbd 213c 9caa 85bd 5d4f 7fbd
0.007277711 -0.058662727 -0.054258578 -0.085402384 0.08128932 0.013310315 0.027661767 0.07653607
0.0101648085 0.010762401 0.054571345 0.024223251 -0.05095322 0.023967542 0.018713458 0.063467585
-0.022048332 0.09834495 0.04214652 -0.010276349 0.06506336 -0.047668546 -0.029927766 -0.1292543
-0.0019472894 0.082363784 0.05293826 0.11710887 0.025724199 0.03213415 -0.010175315 0.0015012358
0.030386504 -0.17930302 -0.06374758 -0.114168584 0.14601362 0.071980566 -0.13510278 -0.103993855
0.063227445 -0.02020233 0.019744774 -0.026162304 0.035592854 0.067660816 -0.037372235 -0.055842787
-0.09422108 0.022138664 0.1467983 -0.0013116415 -0.0033666356 -0.10359336 0.023111792 -0.123734504
0.019932866 -0.04439334 -0.07880505 0.11181127 -0.07383668 -0.007737369 -0.005453315 -0.045936104
-0.020277172 -0.12414041 -0.0150453 -0.14354357 0.058183633 0.03755083 -0.0016233806 -0.079911895
0.22653817 0.0518103 -0.0062449975 -0.053351063 -0.06408392 -0.0038706884 0.04773101 -0.084115036
-0.048605785 0.1578331 -0.019905388 0.057116695 0.10055979 -0.043589596 0.012455939 -0.008107588
-0.05849074 0.027293146 -0.09571131 0.102959774 -0.039441273 -0.019004848 0.056245882 -0.1000824
0.03696003 0.013044561 -0.05580222 -0.049553607 0.038024887 0.030288577 0.012924733 0.046900865
0.00010255335 0.060254976 -0.1341881 -0.050237358 0.012065788 0.041715644 0.064265676 0.017825535
-0.016479447 0.022406051 -0.02318889 -0.033912208 -0.096148826 -0.006904536 0.09675403 -0.10301682
0.02628079 -0.07514476 0.0037517534 -0.033151902 0.075944565 -0.07268554 -0.03535446 0.032869447
-0.02545298 -0.12472754 0.08920636 0.11886785 -0.032827366 0.02838118 -0.03333529 -0.12913732
-0.072236836 -0.09052804 -0.020509312 -0.021807615 -0.013003875 0.032025076 -0.0075535234 -0.12724659
-0.08846613 0.028133344 0.041322533 0.028119847 0.003887213 -0.022623844 0.055758055 -0.14778708
0.06968183 -0.079155475 0.08281288 -0.036374014 -0.02800138 0.019714352 0.035180286 0.0064882278
-0.02263425 -0.14991094 0.079224125 -0.012252268 0.050232124 -0.02613874 -0.0312049 -0.08972778
0.0007144816 0.07850392 0.02263458 0.08898471 0.050586145 -0.027244072 0.040407818 0.008216367
-0.026886242 0.22445317 -0.022069318 -0.016556062 0.04285864 -0.007202901 -0.043242663 -0.09038132
0.14925429 -0.028562903 0.016878063 0.061631355 -0.01426315 0.07127183 0.07278117 -0.012729671
0.036166284 0.048561987 0.009249841 -0.022187296 -0.09957805 0.012674472 0.048386406 -0.018512022
0.08871357 -0.022444239 -0.05588174 -0.020794788 0.003302567 -0.07190281 0.002781573 -0.0807039
-0.027404137 -0.09272396 -0.076699175 -0.031734914 -0.060281817 -0.016959494 0.06927467 -0.023914155
0.08488028 0.04828059 -0.050670933 0.00917901 0.055142656 -0.15982492 0.035623133 0.04379912
-0.115413904 0.03583836 -0.015960887 -0.041314844 -0.07755152 -0.07989513 -0.16061981 0.008109807
-0.076328546 -0.17550021 -0.02593012 0.00014565181 -0.045095295 0.039232276 -0.06510889 0.045750543
-0.07873321 -0.20313694 -0.028363075 0.09178846 -0.10771358 0.026465412 -0.10459455 -0.04823635
-0.14999951 0.03781691 -0.050634217 -0.09802468 0.031625442 0.009871959 -0.06526682 -0.062331546

model/conv2d_2/Conv2D f4 [128, 3, 3, 64]
00000000: e974 42bd 47a8 bd3c 0e39 45bd ae3e 7ebd
00000010: c94a 33bd 8e4e 433c 06ad 1c3c 47e5 5a3d
00000020: bebe 873d 1676 26bc e182 11bc 5c0d 843c
00000030: aaaa b23a 7ea3 c43d e616 353d 2708 3cbd
00000040: 8ccb 96bd 9fed aa3d 9a59 fa3b 6dd2 ddbc
00000050: 41e5 c83a d659 5d3d 427c 2b3b 9293 4a3d
00000060: 9591 263d b7fd 433d 7d63 02bc e898 e43c
00000070: ef2b 84bd d19f 33bd 089b 84bc d825 56bc
00000080: 64ec b5bb 0eb1 66bc 6ae5 0b3d d1ba b1bc
00000090: 50ec d4bd a38e f1bd 53df e7bd 4dad d63d
000000a0: a140 a4bd 3c20 acbc ba84 803b 8ad0 8bbd
000000b0: f4ce fbbc a889 933c 8401 24bd 3ea4 eb3c
000000c0: d74e aa3c c844 c83c a029 b0bc 77c3 07bd
000000d0: a372 7abb 265d d33c a36b 9f3d 2fad b63c
000000e0: 5b12 9e3d ff0b f3bc 1c27 103d 6445 0c3c
000000f0: 4986 283d 468b 9f3d 54f1 3c3d 893e 3a3d
00000100: 53ce 09bd 3a39 f33c fb98 82bd dbd4 d9bc
00000110: 7e43 0a3d 10dc 613b d3f4 1c3d e836 12bd
00000120: aaf0 c7bc bde9 d03c 2dcd 2bbd db5d 52bc
00000130: e681 6abd eb66 dd3d 7739 7ebc c51a 183d
00000140: d758 623c 8df9 40bd 0d1e afbc 9676 9cba
00000150: 2826 843d 665e 29bd fbc5 be3d f355 bf3c
00000160: 0b67 efbc 4975 8fbd a9ca 39bd 3233 293d
00000170: c281 f1bc 0bfc 25bd 1c80 0dbd 7ba0 4fbd
00000180: 8262 853d b43e 11bd b036 4a3c e2cb 5ebd
00000190: 4691 02bd 84a1 6abc 8ba3 a93d aeff 79bd
000001a0: 1e9b 94bd 1e8d 88bc 928b 2a3d f6eb 0dbd
000001b0: 91c9 82bc 0b90 06bc 0081 083d 59f7 bfbc
000001c0: 141b 073c ce1d 4ebd 1bac 55bd dbb6 2abd
000001d0: 31a0 76bc a631 4b3d 9910 aebc 1287 683b
000001e0: d9b5 d23c f66f 293d c069 3cbd 27ae a73d
000001f0: 67f6 8ebc 5c92 75bc 0c99 b53c bf6c eebb
00000200: a094 023d e924 0dbc e09c 17bd ac64 c5bd
00000210: b155 813d 209c e4bb d5b3 6dbc 8864 40ba
00000220: 2ddd 523d 8f72 643d 17ce 27bd 97d0 a33c
00000230: 5a4b 183d 4166 563d e43b eabb 4cf7 1cbd
00000240: 89bb aa3d 9a25 b2bd 1e87 463c f136 7abd
00000250: e2d5 ee3a 1022 833d c48a 19bc 971a b13b
00000260: e59b 1d3d 794c 273c c296 dc3c 87ed 42bd
00000270: 82c4 bebb 25ae 8dbb 95d0 31bd 0998 8cbd
00000280: b523 84bd 6039 523d 7085 da3c 8125 c9bc
00000290: e8c4 5c3d af6d a43d 5238 82bd 4f3d 033d
000002a0: ac49 e53c c76c 253d b63c c7bd 301e 6c3d
000002b0: 1c8b 493d 0209 0a3c 3dff d33c 1994 84bd
000002c0: 5263 653d d72b b6bd 1513 84bd d76a 0a3c
000002d0: 7caa 8cbc b55c af3d 20e2 97bb b0ce f33c
000002e0: 70ac 76bd 5f04 6f3c 15c1 b6bd 58cd cf3d
000002f0: 2935 d8bd 35f8 033d a861 27bd 80cc 163c
00000300: 0974 6bbd e7e5 6f3d 423d 163b e053 f83c
00000310: eab1 10bd 3fb1 ba3d eac3 ba3d 24bc 35bb
00000320: cea8 373d cde3 153d 6024 cd3b c195 5abd
00000330: 3abf b93c 4705 00bd b556 b1bb 7e60 213d
00000340: deec 6fbd 8c6f 1bbc da31 ddbd cdce 1dbb
00000350: 6482 0abd 02da cd3b b3e3 903d 3708 523b
00000360: 3862 4abd 308d 473c 8ffd 3cbd 557f b4bc
00000370: 1e87 04bd e2dd f8bc 4f07 3c3c 2394 7cbd
00000380: 9a77 1fbd 8482 ad3c c0bc 383d 0735 473c
00000390: c7d9 9dbd 8ea5 1bbd 9239 12be 913b 2bba
000003a0: 38dc c3bd fabe 0cbc ea20 5cbc 0a83 a7bc
000003b0: 216b e63a 02aa 003d d679 87bd 3f89 83bd
000003c0: e519 75bd 667d ad3d 34b3 08bd e0e7 9dbc
000003d0: ee75 333d 683c 923c cea6 01bd b56b 873d
000003e0: f96e 733c 8cc9 9b3c fd36 c1bc 105b 333c
000003f0: 8abf 46bd 7d41 4e3d 2c61 c3bb 0ae7 723c
-0.047474775 0.02315153 -0.048150115 -0.062071495 -0.043772493 0.011920584 0.009562736 0.053441312
0.06628178 -0.01015999 -0.008881302 0.016119651 0.0013631184 0.09601496 0.04421129 -0.045906212
-0.07363042 0.08346104 0.007640076 -0.027077878 0.0015327112 0.054040752 0.0026166593 0.04945714
0.04066618 0.047849383 -0.00795829 0.027904943 -0.06453692 -0.043853585 -0.016187206 -0.013070546
-0.0055518616 -0.014080299 0.034154333 -0.021695526 -0.103966355 -0.11794784 -0.113218926 0.10482273
-0.080201395 -0.021011464 0.0039220722 -0.06826885 -0.030738331 0.018009976 -0.040040508 0.02876484
0.020789547 0.02444686 -0.021504223 -0.033145394 -0.0038215301 0.025801253 0.07784202 0.022299377
0.07718345 -0.029668806 0.035193548 0.008561466 0.04114369 0.07790236 0.046128586 0.045469794
-0.03364403 0.029690374 -0.06376835 -0.026590755 0.03375577 0.0034463443 0.03831942 -0.035696894
-0.02440675 0.02550208 -0.041943718 -0.01283976 -0.057252787 0.10810646 -0.01551663 0.037134904
0.013815126 -0.04711299 -0.021376634 -0.0011937197 0.0645259 -0.04134979 0.093151055 0.023356413
-0.02922394 -0.07004792 -0.045359287 0.04130859 -0.029480819 -0.04052357 -0.034546003 -0.050690155
0.065129295 -0.03546019 0.01234214 -0.054393657 -0.031876825 -0.014320735 0.082831465 -0.06103485
-0.07256149 -0.016668852 0.04163701 -0.034648858 -0.015965255 -0.008213053 0.03332615 -0.023433374
0.008246202 -0.050321393 -0.052166086 -0.04167829 -0.015052841 0.049607895 -0.021248149 0.0035480899
0.025721477 0.04136654 -0.04599929 0.08187514 -0.017451478 -0.014988508 0.022167705 -0.007276147
0.03188002 -0.008614757 -0.037014842 -0.09638342 0.063151725 -0.0069766194 -0.014508207 -0.0007339199
0.05148046 0.055773314 -0.040968027 0.019996924 0.037181236 0.05234361 -0.007148253 -0.03832178
0.08336551 -0.08698578 0.012117175 -0.061087552 0.0018221701 0.06402981 -0.009371463 0.005404781
0.03847875 0.010211104 0.026927356 -0.047589805 -0.0058217654 -0.004323738 -0.04341181 -0.06864936
-0.06452123 0.05132425 0.026674956 -0.024554016 0.053898722 0.08028733 -0.063583985 0.03204089
0.027989231 0.04038694 -0.097283766 0.057645977 0.04920493 0.008424999 0.025878543 -0.0647356
0.056002922 -0.088950805 -0.06448952 0.008448324 -0.017171137 0.08562604 -0.0046351105 0.029761642
-0.060223043 0.0145884445 -0.08923546 0.10146588 -0.105570145 0.03221913 -0.040864617 0.00920403
-0.057483707 0.05856886 0.0022924696 0.030313432 -0.035325922 0.09115838 0.09119399 -0.0027730549
0.04483872 0.0365942 0.0062604398 -0.053365473 0.022674192 -0.031255033 -0.0054119476 0.039398663
-0.058575504 -0.009487044 -0.10800524 -0.0024079562 -0.033815756 0.006282092 0.0707468 0.0032048353
-0.049410075 0.012179658 -0.04614025 -0.022033373 -0.03235542 -0.03037924 0.011476352 -0.06166471
-0.03893242 0.021180399 0.04510188 0.012158639 -0.07707553 -0.037999682 -0.14279774 -0.00065320084
-0.09563488 -0.008590454 -0.013435582 -0.020448226 0.0017579534 0.031412132 -0.06615035 -0.06422662
-0.059839148 0.084711835 -0.033374026 -0.019275606 0.04381364 0.01785107 -0.031653218 0.0661234
0.014858001 0.019017003 -0.02358579 0.010947004 -0.04852251 0.050355423 -0.0059625115 0.014825592

model/dense/BiasAdd/ReadVariableOp f4 [43]
00000000: dd5e 79bd 7d23 4ebe 51aa 35be f0e2 733c
00000010: 5e00 3cbe 199d a1bc 1fc0 54bc 2ea3 96bd
00000020: fc89 623d 78a2 9bbd a2e7 c4bd 59cd 15be
00000030: aca2 3dbe f306 51be 34bf 90be 8ed8 a5be
00000040: 7850 4fbe f7e1 bdbe 11ee 5ebe b422 28be
00000050: 0a6b b03d 3aad 94bd 01c6 9fbe 9459 fabd
00000060: 332a a7bd d3fa bbbd 84b7 a7bd 7263 08be
00000070: 83e0 8abd 8f22 b1bc 3fdf 7ebc efa8 00be
00000080: 8642 b3bd 1c28 b3be 1d32 81be 7aa8 2fbe
00000090: 3876 35be 7261 bdbe 2a12 15be 3c56 bebe
000000a0: 274b 0bbd 2e9c a9bd fab5 09be
-0.060881484 -0.20130725 -0.17740752 0.014885649 -0.18359515 -0.01972823 -0.012985258 -0.07355343
0.055307373 -0.07599348 -0.09614493 -0.14629115 -0.18519086 -0.20412807 -0.28270876 -0.3239178
-0.2024554 -0.3708646 -0.21770503 -0.16419488 0.08614166 -0.07259603 -0.31205752 -0.12224117
-0.08162346 -0.091787 -0.081893 -0.13319185 -0.067811035 -0.021622924 -0.015556156 -0.12564443
-0.08752923 -0.3499154 -0.25233546 -0.17154112 -0.17720878 -0.36988407 -0.1455771 -0.37175167
-0.034007218 -0.08281742 -0.13448325

model/dense/MatMul f4 [43, 2048]
00000000: 08ea 2dbd 3d05 27bd 1d87 1abe e719 0bbe
00000010: a2e1 2dbe d6c8 46be 7824 60be 3d8c f0bd
00000020: 8580 7bbe 20c6 49be ec1d 23be 73f5 c6bd
00000030: 29d1 12be e1e7 35be 229f 97bd 2be1 4dbe
00000040: affd d2bd dcfb 26be ac21 78be 5866 67bd
00000050: 26f0 92bd 568d d7bd 828e 40be cc64 a3bd
00000060: fc93 67be 6a98 a1be 7d65 28be 5d2b 48be
00000070: 1b9a 61be e7ab 27be 2927 67bd 9c3f afbd
00000080: c674 cfbd 24c5 ebbd b23e 65be 9710 d6bd
00000090: 2435 18be 359a c2bd 581d 16be b94c e7bc
000000a0: 03bb 81bd c780 58be c697 1ebe e4d9 57bd
000000b0: 8518 35be 4b27 9dbe 3b4f 30be bfec 4abe
000000c0: 1b5a 19be cb52 16be 8b9b 1bbe c992 fcbd
000000d0: 3d52 1fbe efb4 e6bd 23a3 c3bd 8e3e 69be
000000e0: 7711 c3bd faef 9fbc b302 1fbe 6e2d d2bd
000000f0: 61e6 83be 5308 27be 52aa 39be 6541 7abd
00000100: b0b7 cdbd 64a8 9bbd 75b9 20be b4a7 a63c
00000110: fc1d cfbd b8a5 60be 42a3 2fbd bdc4 b2bd
00000120: a325 75bd 09cc e3bd 07d2 19be 8d23 0fbe
00000130: cd3d c6bc 7a55 42bd f234 8cbe da33 4fbe
00000140: ba15 0ebe db98 23be eb2c dfbd 8a50 32be
00000150: 0019 1fbe e4d6 5ebe 3ee2 9dbe 8093 8cbd
00000160: 3957 58be fa70 f9bd 7e1e 24be db0a f5bc
00000170: 972c dfbd 3aaf 08be a913 04be 5bd7 06be
00000180: b619 80bc 2b10 bfbc 1ade 12be 4868 eebd
00000190: 8be3 a4bd 7117 9dbd 6093 273c 7494 3fbe
000001a0: f71e c1bd 5018 31be 8fc1 d7bd 9e88 05be
000001b0: d48e 64bd e429 11be 1cfd 5cbe c073 1fbe
000001c0: 4fea ffba a6ee fdbd 8cad 93bd 39db 6cbd
000001d0: c735 bdbd 3344 51bd d452 04be 5744 9bbd
000001e0: c341 1dbe b83b ef3b 157b 09be 0bc1 29be
000001f0: dd6e c6bd 56c6 44be 77f1 16be 25b0 87be
00000200: d83d 01be a31a 48bd 6fae 24be 00aa 88be
00000210: 45fc 97bd 2641 fdbd f925 0fbe 8fba afbc
00000220: 6b94 90be fe45 5bbe 5f60 8bbd a298 35be
00000230: ea7e 3abc 8f51 57be 67dc 08be c347 a9bd
00000240: d182 51bd e832 d2bd dbf3 58be fc7e 93bd
00000250: b3bb 21be 8c6a 58bd 2bd0 08be 4595 cabd
00000260: 0973 39be 1581 30be 5974 34be 8807 20be
00000270: 54e4 f7bd 2902 51be 5a43 a4bd 467c 38be
00000280: 63c8 29be 1117 5ebe 8592 bfbd ac3b 4ebd
00000290: 0c66 1cbe 7794 a1bd ee7c 12be dffe d1bd
000002a0: 07bc e4bd af68 2ebe 6a08 7fbe dad7 b93c
000002b0: 828b d1bd 1317 8bbc 7c5b dcbd 146f 23be
000002c0: 181c 1cbe e16f 62be ac6d b0bd fdaf b8bd
000002d0: 611f 39be f357 44be 6658 b3bd 1ff3 5dbe
000002e0: 767a 19be 9759 d5bd 5f91 ddbd 8219 54bd
000002f0: d0f9 72be 081f 45bd 11c0 a0bd ac45 cdbd
00000300: 1ba2 48be 94ec cbbd 5a26 7ebe 12be 88bd
00000310: e08c e6bd b547 34be 89d4 e6bd efc4 c1bd
00000320: 7709 6abd b3eb 30be c1b4 ecbd 46b0 1dbe
00000330: abcd 0abd d66d 43be 0a18 c3bd 6c64 dfbd
00000340: 23c7 13be 367e 8bbe 0238 48be e827 ebbd
00000350: 8258 9fbd c826 3ebe 553f 33be ea85 23be
00000360: d6ed b7bd 65ab d5bd 4268 68be e574 a8bd
00000370: 235d 21be 0a99 cabc 2675 17be 4d31 03be
00000380: 399f 9ebd 6a25 0c3d 7201 10be a626 3dbe
00000390: 9240 f3bd dfd1 f4bd 1a59 2a3c df8c 40be
000003a0: 256a f9bc dfb5 10be 4cdb f4bd 7a8c 6dbe
000003b0: 5e02 d8bd 9ac0 8cbd c7c2 c4bd 2745 66be
000003c0: 63f5 893c 3d54 44be 4093 e6bd e795 a6bd
000003d0: 9a3d 07be bf80 dbbd 0bca 15be 7af9 01bd
000003e0: 1523 26be 41d9 3abd 6b31 1abe 870d 3ebe
000003f0: 83a7 5fbe 6b85 fabd 6ff3 0dbe c39d b5bd
-0.042459518 -0.04077648 -0.15090604 -0.135841 -0.16980603 -0.1941255 -0.21888912 -0.11745498
-0.24560745 -0.19704485 -0.15929383 -0.097147845 -0.14337601 -0.17764236 -0.07403399 -0.20105426
-0.103022926 -0.16307014 -0.24231595 -0.056494087 -0.07174711 -0.105250046 -0.18804362 -0.0797821
-0.22615045 -0.31561595 -0.16444965 -0.19547792 -0.22031443 -0.1637417 -0.05643383 -0.085570544
-0.10129695 -0.11512211 -0.22387198 -0.10452383 -0.14864022 -0.09502069 -0.14659631 -0.028234826
-0.06334498 -0.21142875 -0.15487584 -0.05269803 -0.17685135 -0.3069404 -0.17217724 -0.19816874
-0.14975779 -0.1468002 -0.15196054 -0.123326845 -0.15558715 -0.11264979 -0.095526 -0.22777769
-0.095248155 -0.01952361 -0.15528373 -0.10262571 -0.25761703 -0.16311769 -0.18131378 -0.06109752
-0.10044801 -0.07600477 -0.15695746 0.020343639 -0.10113141 -0.21938217 -0.042880304 -0.08728931
-0.059850346 -0.11122901 -0.15021525 -0.13978405 -0.02419939 -0.047444798 -0.27384144 -0.20234624
-0.13875476 -0.15976278 -0.10897239 -0.17413536 -0.1553688 -0.21761662 -0.30836672 -0.06864071
-0.21127023 -0.12179752 -0.16027257 -0.029912403 -0.10897177 -0.13348094 -0.12898125 -0.13168089
-0.01563726 -0.02332314 -0.14342538 -0.11640984 -0.08051213 -0.07670487 0.010228008 -0.18708974
-0.09429734 -0.1729443 -0.10534965 -0.13040397 -0.055800274 -0.14176136 -0.21580929 -0.15571499
-0.0019524785 -0.12399034 -0.07210836 -0.057826255 -0.09238773 -0.05109043 -0.12922221 -0.07581394
-0.15357117 0.00730082 -0.13425858 -0.16577546 -0.09689114 -0.19216284 -0.14740549 -0.26501575
-0.12621248 -0.048853528 -0.16082166 -0.266922 -0.074211635 -0.12365942 -0.13979329 -0.021451263
-0.28238234 -0.21413419 -0.06805491 -0.17734006 -0.011382798 -0.21027206 -0.13365327 -0.082656406
-0.051150147 -0.10263616 -0.21186773 -0.07201955 -0.15794258 -0.052835986 -0.1336066 -0.09891752
-0.18110289 -0.17236741 -0.17622508 -0.15627873 -0.12104097 -0.2041098 -0.08020659 -0.18016157
-0.16580348 -0.21688487 -0.09354118 -0.050349876 -0.15273303 -0.078896455 -0.1430547 -0.10253691
-0.11168676 -0.17032121 -0.24905553 0.022685934 -0.10231687 -0.016978776 -0.10759637 -0.15960342
-0.15245092 -0.22112991 -0.08614668 -0.09017942 -0.18078376 -0.19174175 -0.08757095 -0.21674775
-0.14988121 -0.104174785 -0.10818743 -0.05178214 -0.23728108 -0.048125297 -0.07849134 -0.100230545
-0.19593088 -0.09957233 -0.24819317 -0.06676878 -0.112573385 -0.17605479 -0.112710066 -0.0946139
-0.057137933 -0.17277412 -0.115579136 -0.15399274 -0.033887547 -0.19084868 -0.095260695 -0.10907826
-0.14431433 -0.2724473 -0.19552615 -0.11482221 -0.077805534 -0.18569481 -0.17504628 -0.15969053
-0.089809105 -0.104330815 -0.22696021 -0.08225421 -0.15758185 -0.024731178 -0.14790782 -0.12811776
-0.07745213 0.03421537 -0.14063051 -0.18471774 -0.1187755 -0.11954092 0.01039722 -0.18803738
-0.030446121 -0.14131878 -0.1195589 -0.23198119 -0.105473265 -0.06872673 -0.09607463 -0.22487317
0.016840642 -0.1917276 -0.112585545 -0.0813406 -0.13207093 -0.10717916 -0.14627855 -0.03173206
-0.1622432 -0.045617346 -0.15057914 -0.18559848 -0.21841244 -0.12232479 -0.13862394 -0.08867981
